Artificial Neural Networks/saved_model.bin (torch, 65335 bytes, 4 tensors)

model.0.weight f4 [20, 784]
0.03286323 0.01069972 -0.014610487 0.022882305 -0.020271664 -0.01552535 0.028304758 -0.015315657
-0.03030669 -0.0070906156 0.009184033 0.033904936 -0.04982106 -0.0031633654 0.08961558 0.054730378
-0.034605794 0.0074945055 0.013713475 -0.0031115839 -0.03404361 -0.014119787 0.026907178 0.024701443
0.004249973 -0.0057268995 0.024579097 -0.026386304 0.029768191 -0.0120872175 0.025546404 -0.027247146
-0.10060451 -0.089311935 -0.19299524 -0.12431289 -0.13106982 -0.11197313 -0.16374978 -0.4223081
-0.46347207 -0.45720527 0.03536027 0.023286048 0.21435395 -0.044882737 -0.37788978 -0.47058216
-0.49536166 -0.385041 -0.27023774 -0.16015375 -0.00058069825 0.015359492 -0.030860502 -0.031694915
0.0201688 -0.028671453 -0.14249036 0.15383841 0.04729553 -0.02056868 -0.18390763 -0.20924509
-0.2528611 -0.29614815 -0.16178681 -0.23084295 -0.13448791 -0.05163499 0.08421784 -0.031989068
-0.0053493073 -0.23069306 -0.606998 -0.77361506 -0.8960769 -0.79089874 -0.6165523 -0.3772821
0.115240365 0.015615926 0.012416023 0.009248223 0.033906274 -0.027971592 -0.14486061 0.24844249
0.055251885 -0.26151282 -0.26371646 -0.4630557 -0.45849037 -0.20500115 -0.22150367 -0.036931742
-0.02666799 0.25204584 0.20839123 0.17884353 0.292305 -0.017977111 -0.3171515 -0.43245098
-0.59747 -0.46362972 -0.55471504 -0.6775634 -0.35331592 -0.28229135 -0.1632278 0.022486849
0.01767219 -0.0009023335 0.0985342 0.13327512 -0.29993737 -0.29831782 -0.4423719 -0.505326
-0.4610102 -0.25420502 -0.055904455 -0.17139366 -0.1435751 -0.028345594 -0.055966668 0.06247395
-0.019000072 -0.1022041 -0.12392685 -0.1374117 -0.09140718 -0.37285048 -0.66701806 -0.55535483
-0.2892968 -0.3633354 -0.21297051 0.009568419 -0.03516227 -0.013425598 0.09002174 0.24033688
-0.21067524 -0.06635202 -0.20819017 -0.42760074 -0.35309523 -0.23503235 -0.24347956 -0.24658936
-0.4138767 -0.35682073 -0.2107723 -0.0060704527 -0.039684016 -0.008535327 -0.011030108 -0.093053974
-0.098880626 -0.09954802 -0.06359224 -0.20219247 -0.3224987 -0.43880978 -0.08958826 0.01863099
0.017732881 0.028692069 -0.12183394 0.043338027 0.113171585 0.38836497 0.22933073 -0.09852718
-0.34919605 -0.4239835 -0.2739962 -0.33234072 -0.4616107 -0.29671478 -0.27612752 -0.28513327
-0.16461955 -0.14727 -0.08395307 -0.33311808 -0.23069888 -0.17932914 -0.10445016 -0.033465795
0.0040981146 -0.18746766 -0.08614175 -0.076735534 -0.027809162 -0.082581885 -0.1147123 -0.15036249
0.14610854 0.15464908 0.046337254 -0.063872665 -0.23099796 -0.33000678 -0.1295706 -0.23691972
-0.44971484 -0.37317473 -0.22735631 -0.29995695 -0.1834122 -0.082159206 -0.19983673 -0.15381868
-0.19704597 -0.13088767 -0.02656033 0.08514474 0.04300083 -0.12134901 -0.06379576 -0.07019388
0.1923076 -0.032386538 0.13132867 -0.07450813 -0.22076155 -0.16356999 -0.23078814 -0.28505278
-0.32603368 -0.4173234 -0.1752369 -0.24443112 -0.31892613 -0.31054196 -0.37068325 -0.10504889
-0.090958044 0.13802747 0.10697211 0.09197911 0.19362512 0.021548633 -0.046745636 0.07568111
0.054191317 0.079958536 -0.070432276 -0.11764127 0.06611435 -0.030939108 0.042031746 0.021485187
00000000: 989b 063d e14d 2f3c d360 6fbc ac73 bb3c
00000010: c310 a6bc 0a5e 7ebc 61df e73c 85ee 7abc
00000020: bc45 f8bc 6558 e8bb a078 163c e7df 0a3d
00000030: 2b11 4cbd 7750 4fbb 6088 b73d f62c 603d
00000040: cebe 0dbd 7894 f53b 7cae 603c b7eb 4bbb
00000050: 5071 0bbd ae56 67bc 716c dc3c ae5a ca3c
00000060: 5c43 8b3b b7a8 bbbb 1a5a c93c 1728 d8bc
00000070: 6cdc f33c 7709 46bc b146 d13c 6835 dfbc
00000080: bd09 cebd 2de9 b6bd 8ba0 45be c297 febd
00000090: 2b37 06be 2b52 e5bd 06ae 27be c438 d8be
000000a0: 364c edbe cf16 eabe eed5 103d 62c2 be3c
000000b0: 9a7f 5b3e f6d6 37bd c57a c1be 25f0 f0be
000000c0: 0ba0 fdbe 1824 c5be 9a5c 8abe 58ff 23be
000000d0: 003a 18ba 61a6 7b3c 2acf fcbc 87d2 01bd
000000e0: 0a39 a53c 65e0 eabc fee8 11be d187 1d3e
000000f0: f5b8 413d a67f a8bc 4852 3cbe 5844 56be
00000100: 0377 81be bba0 97be 71ab 25be 1862 6cbe
00000110: 33b7 09be 367f 53bd 677a ac3d f806 03bd
00000120: 3e49 afbb cd3a 6cbe 3964 1bbf a30b 46bf
00000130: 4c65 65bf 5778 4abf 5fd6 1dbf 1f2b c1be
00000140: 2403 ec3d f1d9 7f3c 936c 4b3c dc85 173c
00000150: 4ee1 0a3d ae24 e5bc 5756 14be b567 7e3e
00000160: cd4f 623d 02e5 85be d805 87be a315 edbe
00000170: 40bf eabe d2eb 51be dcd1 62be bd45 17bd
00000180: d476 dabc 270c 813e 8364 553e c222 373e
00000190: 00a9 953e bc44 93bc ae61 a2be 376a ddbe
000001a0: cbf3 18bf e060 edbe ce01 0ebf cc74 2dbf
000001b0: d3e5 b4be 7e88 90be 3025 27be 5736 b83c
000001c0: 45c5 903c 938a 6cba 4ccc c93d 4679 083e
000001d0: 6491 99be 1dbd 98be 927e e2be 0b5d 01bf
000001e0: 8709 ecbe 2927 82be 12fc 64bd d281 2fbe
000001f0: 5a05 13be 0535 e8bc 4e3d 65bd afe4 7f3d
00000200: 0aa6 9bbc 6250 d1bd 5ccd fdbd a7b5 0cbe
00000210: b033 bbbd 42e6 bebe b2c1 2abf bc2b 0ebf
00000220: b61e 94be 1907 babe f114 5abe dcc4 1c3c
00000230: 5006 10bd 0af7 5bbc 515d b83d df1a 763e
00000240: 40bb 57be 91e3 87bd ce2f 55be 7cee dabe
00000250: e6c8 b4be 52ac 70be b552 79be ec81 7cbe
00000260: a6e7 d3be 35b1 b6be b2d4 57be a6ea c6bb
00000270: b58b 22bd c2d7 0bbc a0b7 34bc 1593 bebd
00000280: ed81 cabd d5df cbbd a63c 82bd 8b0b 4fbe
00000290: 8d1e a5be adab e0be 0d7a b7bd 05a0 983c
000002a0: 8c44 913c a10b eb3c 1384 f9bd 3783 313d
000002b0: 81c6 e73d c6d7 c63e add5 6a3e 9ec8 c9bd
000002c0: d3c9 b2be 5e14 d9be 3b49 8cbe 9028 aabe
000002d0: 3d58 ecbe 00eb 97be 9660 8dbe fdfc 91be
000002e0: 0792 28be f2cd 16be 96ef abbd 748e aabe
000002f0: 543c 6cbe 0fa2 37be f7e9 d5bd 6e13 09bd
00000300: 7a49 863b 86f7 3fbe 166b b0bd 8527 9dbd
00000310: 0ad0 e3bc b120 a9bd 48ee eabd a0f8 19be
00000320: 7a9d 153e 545c 1e3e 22cc 3d3d accf 82bd
00000330: bb8a 6cbe a6f6 a8be 28ae 04be 159b 72be
00000340: 0641 e6be c210 bfbe 18d0 68be f593 99be
00000350: 68d0 3bbe 1643 a8bd 00a2 4cbe a582 1dbe
00000360: 6bc6 49be 6b07 06be 0d95 d9bc 5e60 ae3d
00000370: a321 303d d485 f8bd 5aa7 82bd cfc1 8fbd
00000380: 49ec 443e bfa7 04bd 067b 063e b897 98bd
00000390: 510f 62be e47e 27be ba53 6cbe 70f2 91be
000003a0: e3ed a6be 6aab d5be 4d71 33be 274c 7abe
000003b0: 494a a3be 5bff 9ebe 32ca bdbe df23 d7bd
000003c0: 3648 babd 1357 0d3e 3214 db3d 8b5f bc3d
000003d0: aa45 463e c286 b03c 5a78 3fbd b3fe 9a3d
000003e0: b7f7 5d3d 4dc1 a33d cc3e 90bd e8ed f0bd
000003f0: f666 873d 0374 fdbc 7b29 2c3d b401 b03c

model.0.bias f4 [20]
0.23776577 -0.23394488 0.07173884 0.6480646 0.07005988 0.60689557 -0.066765554 -0.05504003
-0.20343658 0.31969765 -0.3287034 -0.22484834 0.053710148 -0.120664835 0.23119138 0.23694308
-0.21162811 -0.023256771 0.003292959 0.26536652
00000000: df78 733e 3f8f 6fbe d0eb 923d 90e7 253f
00000010: 8e7b 8f3d 825d 1b3f 61bc 88bd a871 61bd
00000020: ae51 50be 69af a33e d04b a8be a53e 66be
00000030: 2cff 5b3d 201f f7bd 6fbd 6c3e 35a1 723e
00000040: 0ab5 58be fc84 bebc afce 573b 1fde 873e

model.2.weight f4 [10, 20]
0.19289051 -0.6495967 0.23695168 -0.23965646 0.16443779 -0.8098924 -0.66553247 0.116392136
0.09521824 -0.0022525745 -0.19128004 0.3145123 0.032519456 0.36065775 0.36314678 0.45500422
-1.1249785 -0.07466589 -0.6252092 -0.39320195 0.19091903 0.16197515 0.47509918 0.3748483
-1.0010109 -0.5695976 0.08944137 -0.17827347 0.019149447 -0.31729513 -0.5888201 0.059007023
-0.35231033 -0.96196103 0.14829017 -0.7393126 -0.7765183 -0.012398106 0.23444147 0.23740493
0.46013921 0.46751243 0.060345788 0.22459981 -0.14018807 -0.100940526 -0.114893325 -0.006130547
-0.43076378 0.12601514 0.6191089 -0.16468574 -0.21918146 0.002661097 0.47791514 -0.29362798
-0.07057809 -0.047610216 0.029021708 -1.4784429 0.053195063 0.18072203 0.0104113035 -0.4568624
-0.39283565 -0.033482295 0.49539366 -0.20985039 0.30284196 0.015363395 0.4789296 0.09628327
-0.0077609876 0.07777715 -0.1199171 -0.4753565 0.4373538 0.034525383 -0.34811985 0.09285966
-0.24430664 -0.36847004 -0.44296697 0.29275188 0.007768621 0.22936386 -0.64616334 -0.16465044
0.18878493 0.19644035 -0.7517321 -0.9372314 0.18667819 0.2956629 -1.3440558 -0.112405114
0.2339905 0.1591865 0.27931675 0.40204915 0.71322334 -0.19863397 -0.31113365 -0.9331339
0.141728 0.4048114 0.05628647 -0.13598736 -0.3204354 0.4232249 -0.5927855 0.11112441
0.38016772 -0.2715209 0.27117968 -0.1265603 0.39161918 0.09947052 -0.46087253 0.43648958
-0.21103668 -0.40792966 0.33741727 0.6689638 0.44279063 -1.024991 -0.7038301 -0.1927242
-0.59762007 0.39543366 -0.861363 0.18437453 -0.04483339 0.082959615 -0.37251365 -0.43671447
-0.8572489 -0.04160391 0.2661488 0.114796646 -0.36460727 0.38054064 0.23414646 0.3697292
0.051584758 0.4690803 0.19581838 -0.2164642 0.22791216 -0.7354372 0.33921784 -0.64798224
-0.68093455 -0.13737804 0.07285165 0.40868884 -0.5130213 0.13701911 -0.36667973 -0.46244082
-0.86371535 0.14015076 -0.14820044 -0.4887377 0.21013832 -0.22403398 -0.004579978 -0.07065123
0.18526553 -0.33903396 -0.43632948 0.18807824 0.18681441 -0.1984382 -0.10863514 0.037743654
-0.08671519 0.104116365 0.423494 -0.014991656 -0.46053618 -1.0317914 -0.69164175 -0.19412817
0.15170005 0.08023723 0.20474067 -0.02468424 0.11647442 -0.6527083 -0.8828856 -0.29622492
-0.654372 0.23376606 0.054337993 0.10297776 0.27195388 -0.08635608 0.27023217 0.4174107
00000000: 1785 453e f84b 26bf 76a3 723e 8168 75be
00000010: 6162 283e 1c55 4fbf 5660 2abf 005f ee3d
00000020: c801 c33d ee9f 13bb eade 43be c207 a13e
00000030: 1f33 053d 22a8 b83e 60ee b93e 50f6 e83e
00000040: 4cff 8fbf 6eea 98bd b60d 20bf c451 c9be
00000050: 4780 433e d0dc 253e 3340 f33e 1eec bf3e
00000060: 2021 80bf 26d1 11bf 092d b73d 528d 36be
00000070: 4ddf 9c3c 8274 a2be eabc 16bf 59b1 713d
00000080: 0562 b4be 1443 76bf 61d9 173e 9743 3dbf
00000090: e7c9 46bf 6d21 4bbc 6d11 703e 471a 733e
000000a0: 5e97 eb3e ca5d ef3e 252d 773d 7efd 653e
000000b0: 768d 0fbe e8b9 cebd 314d ebbd c1e2 c8bb
000000c0: 128d dcbe 1d0a 013e ec7d 1e3f 61a3 28be
000000d0: 1b71 60be cd65 2e3b 4bb1 f43e 6856 96be
000000e0: 3f8b 90bd ee02 43bd efbe ed3c 9e3d bdbf
000000f0: 11e3 593d 320f 393e 2c94 2a3c dee9 e9be
00000100: c121 c9be bb24 09bd 3da4 fd3e 05e3 56be
00000110: 1a0e 9b3e c0b6 7b3c 4336 f53e 2a30 c53d
00000120: e24f febb a049 9f3d 1997 f5bd ed61 f3be
00000130: d6ec df3e 7d6a 0d3d c43c b2be 352d be3d
00000140: 852b 7abe 1ba8 bcbe 91cc e2be 93e3 953e
00000150: eb8f fe3b 5cde 6a3e f66a 25bf 209a 28be
00000160: d650 413e a927 493e 8471 40bf 66ee 6fbf
00000170: 9128 3f3e 2161 973e 050a acbf a734 e6bd
00000180: 359b 6f3e c901 233e 9b02 8f3e 63d9 cd3e
00000190: ce95 363f b466 4bbe e94c 9fbe dde1 6ebf
000001a0: 2521 113e 7143 cf3e a48c 663d 4540 0bbe
000001b0: 1c10 a4be efb0 d83e cac0 17bf 3295 e33d
000001c0: 58a5 c23e ca04 8bbe 10d8 8a3e 0699 01be
000001d0: 4f82 c83e 33b7 cb3d 7cf7 ebbe 907b df3e
000001e0: 001a 58be 28dc d0be f5c1 ac3e 3641 2b3f
000001f0: 74b5 e23e e832 83bf 362e 34bf 7e59 45be
00000200: a1fd 18bf 4876 ca3e 4982 5cbf adcc 3c3e
00000210: 37a3 37bd bbe6 a93d 1cba bebe 0a99 dfbe
00000220: aa74 5bbf dd68 2abd a844 883e 811a eb3d
00000230: cead babe 39d6 c23e 17c4 6f3e 254d bd3e
00000240: 8a4a 533d 4b2b f03e 9d84 483e cba8 5dbe
00000250: ce61 693e 9d45 3cbf f6ad ad3e 2ae2 25bf
00000260: ba51 2ebf d4ac 0cbe 3f33 953d aa3f d13e
00000270: 5d55 03bf bd4e 0c3e 72bd bbbe 0bc5 ecbe
00000280: 731c 5dbf ae83 0f3e dbc1 17be d43b fabe
00000290: 802e 573e 2a69 65be a413 96bb 98b1 90bd
000002a0: 3fb6 3d3e dc95 adbe 9466 dfbe 9597 403e
000002b0: 474c 3f3e 6233 4bbe 1a7c debd 1799 1a3d
000002c0: bc97 b1bd f63a d53d 35d4 d83e 909f 75bc
000002d0: 66cb ebbe be11 84bf 6f0f 31bf 89c9 46be
000002e0: 4257 1b3e 6b53 a43d 8aa7 513e 9a36 cabc
000002f0: 248a ee3d e417 27bf ca04 62bf cbaa 97be
00000300: ec84 27bf 5f60 6f3e 8491 5e3d 01e6 d23d
00000310: 8a3d 8b3e 75db b0bd df5b 8a3e dbb6 d53e

model.2.bias f4 [10]
-0.2767334 0.17265622 -0.02266126 -0.22695473 0.32963994 0.38867766 -0.025465097 0.5347896
-0.7316431 -0.12448174
00000000: 00b0 8dbe cbcc 303e 1ba4 b9bc d266 68be
00000010: 91c6 a83e c200 c73e 2e9c d0bc f9e7 083f
00000020: f64c 3bbf 48f0 febd
